results/maml_model.pt (torch, 234681 bytes, 6 tensors)

network.0.weight f4 [128, 384]
000000 0d fb c3 3c a3 b1 ce 3c 49 81 09 bc 06 68 3a bd
       0.023923421 0.025231188 -0.00839264 -0.04550936
000010 24 65 0c 3d cb db 96 bc c7 11 bd 3c 95 53 95 3c
       0.034276143 -0.018415352 0.023079766 0.018228332
000020 8f 13 c9 bc f7 83 5c bb 70 95 d0 3c 56 46 b1 bc
       -0.02454546 -0.0033647993 0.025461882 -0.021639984
000030 ee c9 50 bd 5e f3 0e bd 9a c9 e7 3c 76 e1 d0 bc
       -0.050973825 -0.03490006 0.028294373 -0.025498133
000040 39 a9 d5 bc 3c 96 9b 3b 85 a6 4e bd 20 77 0c bc
       -0.026081668 0.004748134 -0.050451774 -0.0085733235
000050 3e 70 1e 3d 85 36 87 bc 89 b4 96 3b 07 55 17 bb
       0.03868126 -0.01650549 0.004599158 -0.0023091452
000060 a6 8f 9d bc 02 28 45 bd bc ca 1f 3c 1c 55 1d 3d
       -0.019233536 -0.048133858 0.0097529255 0.038411245
000070 2e 0d 88 3c e7 85 07 bd e7 7d a1 bc d3 d0 2c 3d
       0.016607847 -0.033086684 -0.019713355 0.042191338
000080 28 a5 14 bc ca 30 48 bd be fd 4c bd 0e ae 20 bd
       -0.009072579 -0.048874654 -0.050046675 -0.03922849
000090 a5 1e c9 b9 cc 83 0f bd fa bb f9 bc db af fe bb
       -0.0003836054 -0.0350378 -0.030485142 -0.0077724284
0000a0 99 40 49 3d 41 27 30 bd 79 d3 27 3d e7 f4 ac bc
       0.04913387 -0.043006185 0.04097316 -0.021112872
0000b0 64 f4 3f 3d af 01 80 ba e4 3c 72 bc 81 e7 6c 3c
       0.04686393 -0.0009766127 -0.014785025 0.014459492
0000c0 58 4b 18 bd ff a9 32 bd 7b 3a 34 3d b5 ab 80 bc
       -0.03718123 -0.043619152 0.044001084 -0.015706876
0000d0 75 25 5b 3c 02 6e 37 3d 24 08 04 3d 0c 67 b1 3c
       0.01337563 0.044782646 0.032234326 0.021655582
0000e0 69 e7 ca 3c c9 a9 1e 3d ca 77 50 bd 40 66 ca bc
       0.024768548 0.03873614 -0.05089549 -0.02470696
0000f0 03 94 2e 3d 7d c6 18 3d 0d 4b a1 39 c0 75 45 3d
       0.042621624 0.03729867 0.0003076423 0.048208
000100 71 d4 52 3c 97 91 49 bd ba 84 3a 3d 63 05 35 bc
       0.012868033 -0.04921111 0.045536734 -0.011048648
000110 5f 02 db ba 92 cd 4b bd 2f f1 4e bc f0 df b2 3b
       -0.0016709081 -0.049756594 -0.012630745 0.0054588243
000120 0b 3b 00 3b 49 2e 89 bc c0 23 15 3d cf 67 17 bc
       0.0019566442 -0.016745703 0.036411047 -0.0092410585
000130 5f 96 73 bc d2 78 e2 3b 1d 02 18 bd c3 af 0e bd
       -0.014867394 0.0069113756 -0.03711139 -0.03483559
000140 39 68 d9 bc 69 34 da 3c 5e d0 e1 3b 66 de f0 3c
       -0.026538955 0.02663632 0.0068912944 0.029402923
000150 71 5f 88 bc 4c dd d2 bc a4 91 5c bc 6a f7 2a 3d
       -0.016647073 -0.025740288 -0.013462458 0.04173986
000160 ac 54 4e 3d 85 d5 0d 3d 39 d2 b7 3c 24 57 35 3c
       0.05037372 0.034627456 0.02243911 0.011068139
000170 46 2a 48 3d cd 50 27 bc 9d 8d 5a bc c5 1a 01 bd
       0.04886844 -0.0102121355 -0.013339427 -0.03151967
000180 e6 3c 37 bd ef bd 86 bc 9d 6d 8e 3c 70 b0 52 bc
       -0.04473581 -0.01644799 0.017386252 -0.012859449
000190 ce ab a1 bc 6b 9f c1 3b 6a 73 a1 bb fe e4 5e 3c
       -0.019735243 0.0059088967 -0.0049270885 0.013604401
0001a0 1c cc 60 3b 65 4c a4 3b 7a f6 86 3c 28 09 0a bb
       0.0034301346 0.0050139898 0.016474951 -0.0021062586
0001b0 ea 45 ec bc c9 4c ce 3b 1f 00 78 bc 67 88 cf bc
       -0.028841931 0.0062957746 -0.015136748 -0.025333596
0001c0 89 e0 2c 3d d0 7f 2b 3d a8 3f 0b bd f1 ea a2 3c
       0.04220632 0.04186994 -0.033996254 0.01988742
0001d0 1b 25 87 3c 5d 27 79 bc 6c b0 61 bb c6 f8 15 3d
       0.016497185 -0.015207139 -0.003443743 0.036614202
0001e0 a6 84 de bc ba 8c 11 bd 5b 74 1b bd d3 03 38 bd
       -0.027162861 -0.035534598 -0.037952762 -0.044925522
0001f0 85 44 e0 3c e9 49 29 3d d8 99 a1 bb d7 e3 c9 3c
       0.027376423 0.04133025 -0.0049316697 0.024644775
000200 65 45 29 bd 95 4d 28 bc a5 3a e1 bb f6 bf 6b bc
       -0.041325945 -0.010272403 -0.006873446 -0.014389029
000210 65 ca 87 3b 4e 9a e4 bc 8a 00 26 bd 07 2a 03 bd
       0.0041440004 -0.02790561 -0.040527858 -0.032022502
000220 17 37 26 bd 84 30 08 bd bd f7 58 bc 2c 65 ec bc
       -0.04057988 -0.033249393 -0.013242659 -0.028856836
000230 6d c8 1b bd 20 c7 ba bc 1a ab 0d 3d 99 46 4f bd
       -0.038032938 -0.022800028 0.034587003 -0.050604437
000240 16 90 80 bc f7 43 fa 3c f4 c0 13 bd 42 c5 41 3c
       -0.015693706 0.030549986 -0.036072686 0.011826815
000250 e1 29 18 3c ed 41 02 3d c2 1b f7 bc f8 6c 17 bd
       0.009287328 0.031801153 -0.030164603 -0.036969155
000260 8e f1 52 bb 8c ff bd bc 78 0f 9e 3c ad 40 a7 bc
       -0.0032187435 -0.023193143 0.019294485 -0.020416582
000270 23 d0 16 3d 57 00 26 bd 39 be 22 bd 55 41 0e 3d
       0.03681959 -0.040527668 -0.03973219 0.034730274
000280 a9 b5 2f 3d ad 92 df 3b bd ef 2d bd bb 3f e7 bc
       0.042897854 0.006822905 -0.04246496 -0.028228631
000290 5b 12 38 bd 94 34 30 3d e8 a4 cd 3c c4 06 a8 3c
       -0.04493938 0.043018892 0.025103047 0.020511039
0002a0 00 6e c8 3c 87 90 00 bd 96 ce 27 bd 52 b2 19 3d
       0.024466515 -0.031387832 -0.0409685 0.037523575
0002b0 6c b1 22 3d eb a4 e9 3c 20 e9 4c bc e4 ef 8b bc
       0.039719984 0.028521022 -0.012506753 -0.017082162
0002c0 c6 06 39 3d d5 08 90 3b 0d 11 19 bc 36 45 e8 bc
       0.045172475 0.004395584 -0.009342444 -0.028353315
0002d0 13 af 80 bc 63 61 42 3b 6a cc fc bc 30 d1 0e bd
       -0.015708482 0.0029660098 -0.030859191 -0.034867465
0002e0 9e 27 15 bc 5b 66 72 bc 65 02 03 bd 7a c7 dc bb
       -0.009103684 -0.014794911 -0.031984705 -0.0067376466
0002f0 09 42 08 3d fd 8a 22 bd 1a bc c4 bc 9a 52 ca 3c
       0.0332661 -0.03968333 -0.024015475 0.02469759
000300 ba c8 1f 3d a6 09 11 3d 97 69 cf ba 9c 11 6c bb
       0.039009787 0.035409592 -0.0015824315 -0.0036021238
000310 f7 88 98 bc 3f 68 3a bd d0 1d 69 3c 97 32 c2 bc
       -0.018619997 -0.045509573 0.014228299 -0.023705764
000320 b0 2f a0 3c e3 c7 5c 3c 4a 7a 19 3d d3 a4 79 bb
       0.01955399 0.013475391 0.03747014 -0.0038092628
000330 d7 48 1d bc a4 85 d5 bb cf ea 4c 3c 5a 75 4d 3d
       -0.009599886 -0.0065161753 0.012507155 0.050160743
000340 fb 3f 37 bd d7 3f 89 3b 0d 9f a4 bc e4 a7 13 bd
       -0.04473875 0.0041885185 -0.020095373 -0.036048785
000350 6d 4b 08 bc 8e f5 26 bd ce f1 48 bd 6b a8 71 bc
       -0.008318764 -0.040761523 -0.049058728 -0.014749627
000360 b3 1f 36 bd b4 70 88 bb c0 64 8c 3b 33 b6 44 bd
       -0.044463824 -0.004163826 0.0042844713 -0.04802532
000370 fd dd 06 bd 17 3c 64 3c a9 ee bf bc 80 a4 1a bc
       -0.03292655 0.013930342 -0.023429232 -0.009438634
000380 f3 5b 1c 3d 07 02 4e 3d db 16 1e bc 7b 9d 64 3c
       0.038173627 0.050294902 -0.009649004 0.013953562
000390 41 30 41 bd db e0 f2 3c 1b aa ef 3c 92 37 dc 3c
       -0.04716516 0.029648235 0.029255917 0.026881967
0003a0 0d 34 8e 3c 2c e8 4f bd 8f e4 f1 3c 24 92 e4 bc
       0.017358804 -0.050758526 0.02952793 -0.027901717
0003b0 ea f0 38 bd 02 f8 27 bd d7 cf f1 3c 8f 91 9e bc
       -0.04515163 -0.041008003 0.029518051 -0.019356517
0003c0 bd 5f e2 3c 5e 31 38 bc 7e 33 76 bc c8 eb 37 3d
       0.027633542 -0.011242239 -0.015026925 0.044902593
0003d0 96 f6 17 3d 6f c0 1d 3d 81 b6 42 bd 94 b9 88 39
       0.037100397 0.038513597 -0.04753733 0.00026078208
0003e0 3b b8 2f 3d af 3e 25 3d 57 c6 4d 3d 1b 57 5d 3c
       0.042900305 0.040342983 0.05023798 0.013509537
0003f0 c9 51 98 bb f7 2e 1e 39 70 14 d2 3c b4 fd 91 bb
       -0.0046484214 0.0001508555 0.025644511 -0.0044552926

network.0.bias f4 [128]
000000 c1 72 39 bd 20 ac 6b bc a3 87 15 bd da fa d1 bc
       -0.045275453 -0.0143842995 -0.036506306 -0.02563231
000010 3c 9c b6 bc 67 39 29 bd d3 f9 a8 3c 4c 6a b7 bb
       -0.022291295 -0.04131451 0.020626938 -0.0055973884
000020 49 82 53 3d 08 22 0b 3d 9d 4c 30 3d 45 7a 68 bb
       0.05163792 0.033968 0.043041814 -0.003547327
000030 0a ae d7 bc c5 8b 91 3b 53 84 84 3d 2d fd 4a 3d
       -0.026328105 0.0044417107 0.06470551 0.049557853
000040 e2 44 b0 bc 9f 96 c3 3d a1 84 08 3d b3 2b 0e 3d
       -0.02151722 0.09550213 0.03332961 0.034709644
000050 a8 70 20 3d bb 5b 90 3d b5 74 6b 3e cb 0b 91 3c
       0.039169937 0.07048746 0.22993739 0.017705819
000060 29 ef 19 bd 37 e3 5c bc 27 a8 30 bc f0 22 a6 bc
       -0.037581597 -0.013481907 -0.010782278 -0.020280331
000070 93 ce 95 3c 4e 6e d9 bc 56 2a 3e bd 79 66 29 bd
       0.018286979 -0.026541855 -0.046427093 -0.04135749
000080 ba 24 0b bd 7a 60 64 3d 5f b7 3e bc 2e 4f bc 3c
       -0.033970572 0.05575607 -0.011640399 0.022986975
000090 76 f6 e2 bc 40 6c 6d 3d aa a6 05 3d fc 55 b1 bc
       -0.027705412 0.057964563 0.032629646 -0.021647446
0000a0 ec 93 dc bb d4 d5 e8 bc 6d 09 08 3d dd 59 4c bd
       -0.006731501 -0.028422274 0.033212114 -0.049890388
0000b0 24 63 76 3d fd 8e 02 3d 35 b4 b9 3c 72 4e 16 bc
       0.06015314 0.031874646 0.022668937 -0.009173976
0000c0 85 13 02 bc ae db 18 bc e3 ed a1 3d 48 31 ec bb
       -0.007939224 -0.0093297195 0.079067014 -0.007208023
0000d0 04 8c 0e bd eb 61 3a 3d 00 7a 3f 3d 1a 09 38 3c
       -0.034801498 0.045503538 0.046747208 0.011232639
0000e0 1d 19 11 3d 13 4c 3b bd 90 ec c6 bc 5f 7a 48 3c
       0.03542434 -0.045726847 -0.024282724 0.012236207
0000f0 ac 5b 01 3d da 85 77 3c 3a bc 23 3d 09 a7 04 bd
       0.031581566 0.015107596 0.03997443 -0.03238586
000100 9d b5 34 3d 20 41 01 bd 3a fe 18 3d 24 fb 0b 3d
       0.044118512 -0.03155625 0.037351824 0.034175053
000110 42 2b d3 3c 70 f1 c5 bc 90 d2 c3 3c b4 b1 3b bd
       0.025777463 -0.024162978 0.023904115 -0.045823768
000120 f8 3a 25 3d 39 9b 0a bc ef c6 ab 3c 70 52 85 3d
       0.04033944 -0.0084598595 0.020968882 0.06509864
000130 2a af 8e 3d 73 53 b7 3b ab f3 44 39 f8 61 9d 3d
       0.06967004 0.0055946647 0.0001878279 0.07684702
000140 e3 a4 30 bd fd bd 84 3d 81 4e 50 bd 92 23 6a 3d
       -0.043126 0.0648155 -0.050856117 0.05716283
000150 57 2e 6b 3c b6 30 80 bc 3d f0 8a 3d 9b 9a 4f bd
       0.01435431 -0.015648227 0.06784103 -0.050684553
000160 b8 1d 1b bc 1a f9 53 bc 7d d1 aa 3c ad bf 4c 3d
       -0.009467535 -0.012937808 0.020851845 0.049987484
000170 ec 33 07 bd 5b 13 4f 3d 80 c3 d6 bc 2e a6 e3 bb
       -0.0330085 0.05055557 -0.026216269 -0.0069473004
000180 93 89 72 3d e2 bb 8e 3d 6a b4 44 bd e2 d9 87 bc
       0.059213232 0.069694296 -0.04802362 -0.016583387
000190 53 4b 1a 3d fc b7 d5 3c 27 c6 57 3c c3 ab 89 3d
       0.03766949 0.026088707 0.013169802 0.06722214
0001a0 b8 9c ec bc 64 75 29 3d e8 f8 71 3d e1 f9 4a 3d
       -0.028883323 0.041371718 0.059075266 0.04955471
0001b0 38 92 62 3b d2 31 5c 3d b7 73 81 bc fd 3c a5 3d
       0.0034572016 0.05375845 -0.015802247 0.08068273
0001c0 77 c6 02 bd f9 d7 81 bc 93 e7 e6 3c dd af b9 bb
       -0.031927552 -0.015850054 0.028186595 -0.0056667165
0001d0 8e cf 71 3c 48 bb 16 3d 65 1f c3 bc 61 4e a4 bb
       0.014758958 0.0367997 -0.023818681 -0.0050142263
0001e0 7f 67 36 3d d0 89 54 bd cc 7c 4a 3d 39 a7 1d bd
       0.044532295 -0.05188924 0.04943542 -0.038489554
0001f0 86 d2 2b bd 18 7b 29 bd ff f2 1e bc 05 db 46 bc
       -0.041948818 -0.041377157 -0.0097014895 -0.012137179

network.3.weight f4 [64, 128]
000000 16 e4 74 bb 84 b2 1f bd 43 3f ad bd 85 e5 ac 3c
       -0.0037367395 -0.038988605 -0.08459332 0.021105537
000010 e6 cb bc 3c 3b 70 b4 3d 05 a1 c3 3c a2 ab 3e bd
       0.023046445 0.08810469 0.023880491 -0.0465504
000020 28 6e 28 3d e9 83 d6 3d 8c 1d 71 3e b0 8c 4b 3d
       0.04112068 0.104743786 0.23546427 0.049694717
000030 53 43 cb bc 92 8c 35 3d 0d 55 1a 3e bc 7e a1 3d
       -0.024812376 0.04432351 0.15071507 0.07885501
000040 79 8a 47 3d d1 7f 07 3d 12 f7 3f 3e a0 3f 23 3c
       0.048716042 0.03308088 0.18746594 0.0099639
000050 a2 a1 36 bc 2d 6e 1d bd a1 c5 60 3e f8 61 db 3d
       -0.011146935 -0.03843515 0.2195039 0.107120454
000060 12 7f c8 3c 6e b7 6e 3d 9e 27 2e 3e 18 8b 76 bd
       0.024474654 0.0582804 0.170073 -0.060191244
000070 df e2 e2 3a 4c ed 0a 3e b8 7c 1b bc 08 ef d2 3d
       0.0017310044 0.13567084 -0.0094901845 0.10299498
000080 a0 bd 8a bd eb 77 e1 3d d7 45 07 bd 58 6c 87 bc
       -0.06774449 0.11009201 -0.03302559 -0.016531155
000090 a8 1f a6 3d b5 26 fc bc fe 74 84 3d 7e c2 45 bd
       0.08111507 -0.030780176 0.06467627 -0.048281185
0000a0 25 0a 56 3c 06 9b 95 3d 5a 97 f0 bd 18 12 a2 3d
       0.013063942 0.07304959 -0.11747618 0.07913607
0000b0 e8 df 0a 3e 72 80 9e bc 4b 93 de 3d a8 fd 98 3c
       0.13561976 -0.019348357 0.10867938 0.01867564
0000c0 56 74 53 bd 99 8a 33 3e ea 6a 50 3e 74 98 45 3c
       -0.05162462 0.1753334 0.20353284 0.012060273
0000d0 67 6e 4b bd 62 16 cd bc 8f ff 0f 3e ea 18 0e 3d
       -0.049665835 -0.025035087 0.14062332 0.03469173
0000e0 a4 8c 30 3e d6 30 4a bd 3d 91 8a 3d 5d 82 83 3d
       0.1724115 -0.04936298 0.06765983 0.06421349
0000f0 aa b0 d1 3d 17 a8 a1 3d 1c a6 97 3d e2 d1 13 be
       0.10238774 0.07893389 0.0740473 -0.14435533
000100 53 44 01 3e 0f ec a6 bd e7 fc 4a 3d 4e 67 24 3e
       0.1262372 -0.08150493 0.049557593 0.16055033
000110 a0 fa 4e bd f8 9e 88 3d ed e6 cd bd fb 28 80 bd
       -0.050531983 0.06670946 -0.10053811 -0.062578164
000120 de 7e a2 3d 9a a2 31 bd c2 3f bf 3d 75 b8 33 3e
       0.07934354 -0.04336796 0.09338333 0.17550834
000130 e8 60 5c 3d b9 2f 14 3e 15 e3 81 bd 01 0b 90 bc
       0.053803355 0.1447133 -0.063421406 -0.017583372
000140 36 4e 85 3d db ad 68 3d 9f b8 09 3d cc 11 ee 3d
       0.06509058 0.056806426 0.033623334 0.11624488
000150 95 31 42 bd de b5 20 be 8c d9 0e 3d 13 8e bb bc
       -0.047410566 -0.15694377 0.034875438 -0.022894895
000160 03 e5 f2 3c 90 68 6c 3d a3 71 9d 3d 90 54 ee 3d
       0.029650217 0.057716906 0.0768769 0.11637223
000170 2e 75 aa 3d e1 3c 86 3d a7 ea 0c 3d a4 f3 c9 bc
       0.083231315 0.065545805 0.03440347 -0.02465231
000180 1f 9d 05 3e eb 55 aa 3d e7 db 06 3d e3 23 3b bd
       0.13048218 0.08317169 0.03292456 -0.04568852
000190 cb 06 de 3d bb b3 bd 3c b7 c0 ee bd 96 8d 02 3e
       0.108411394 0.023156991 -0.11657851 0.12749323
0001a0 95 f5 83 bb aa 92 9b 3c 1f 36 9b 3c 0b 50 cb 3d
       -0.0040270784 0.018990833 0.018946705 0.09927376
0001b0 b6 cf 18 be 9f 31 12 3c 0c 14 86 3d 6b ee 18 bd
       -0.14922985 0.008922963 0.065467924 -0.037336748
0001c0 c4 9f 9c bd ea 47 72 3c c5 ec 56 3d bf 37 42 be
       -0.076476604 0.014787653 0.052471895 -0.18966578
0001d0 d6 9b 9c bd 1c f7 98 3d e0 a0 67 3d 22 0c 24 be
       -0.07646911 0.074690074 0.056549907 -0.16020253
0001e0 bb 6d 66 3e 6b 8a a5 bd 62 57 88 3d 9f ee 0c bd
       0.22502796 -0.08083042 0.06657292 -0.034407254
0001f0 c4 db 6e ba 1d 60 08 3c 1a 14 86 bb be d4 db bc
       -0.0009111727 0.008323696 -0.0040917518 -0.026834842
000200 3c 2b 78 3d af c1 b5 3d e9 35 98 bc 8f 33 b0 3d
       0.060588107 0.08874833 -0.018580394 0.08603584
000210 58 08 6d bd ab 2c 88 bd dc c9 35 3d 20 f4 98 3c
       -0.057869285 -0.06649145 0.04438196 0.018671095
000220 d6 87 f6 3b f1 8c bb 3d 94 a0 f7 bc 81 c4 65 3d
       0.007523517 0.09157742 -0.030227937 0.056095604
000230 d1 cc 7f 3d 18 9e 86 3c 45 03 8e bc a6 4d 22 bd
       0.062451188 0.016432807 -0.017335543 -0.039624833
000240 ba 01 91 3d 29 cf f2 3d 87 19 cf 3d 14 2a 36 3d
       0.070804074 0.11855919 0.10112291 0.044473723
000250 35 28 71 3d 46 fb 74 3d 1b 36 ff 3d 9e 61 cd bc
       0.058876235 0.059809946 0.12461492 -0.025070962
000260 4d d0 6d 3c f1 92 9d bc f0 3d 45 be a7 e0 13 bb
       0.014514995 -0.019235106 -0.19261909 -0.0022564323
000270 3a f8 71 bd 41 14 2e bd 81 f3 36 bd 46 ac ed 3c
       -0.059074618 -0.042499784 -0.044665817 0.02901281
000280 22 ee 95 3d 5a c0 3b bd 5c c9 fc bc a3 96 88 bd
       0.07320811 -0.045837738 -0.030857734 -0.06669357
000290 5b fb 94 bd f6 90 9e 3c 6a 97 ae 3d 61 af 3b 3d
       -0.07274505 0.019356232 0.08524974 0.04582155
0002a0 9d a2 50 bd aa ad a9 3d 6f e8 c0 3d 5d 93 bd bb
       -0.05093633 0.08285077 0.09419333 -0.0057853893
0002b0 36 9b 0e 3d 88 2f 1c bd 3d ba 58 3c 36 15 5a bd
       0.03481599 -0.038131267 0.013227996 -0.053242885
0002c0 0e aa 1d bc 8d d9 9f bd d6 93 21 bd 24 85 b9 3d
       -0.009623064 -0.078051664 -0.039447628 0.09058598
0002d0 d4 f9 40 bd c4 46 67 bd f1 8b 84 3d 70 1b 2c 3e
       -0.047113255 -0.05646397 0.06472004 0.16807342
0002e0 a8 e8 63 bd 29 78 8d bd 15 55 a6 3d 84 77 9b 3c
       -0.0556418 -0.06907684 0.08121697 0.018977888
0002f0 01 a3 90 bd d5 45 15 3d 38 fa 10 3d f7 57 37 be
       -0.070623405 0.03644355 0.035394877 -0.1790465
000300 a9 ca 18 3d 65 5b ca bc 5f f1 1f bd 7c a8 4b 3d
       0.037302647 -0.024701783 -0.03904855 0.049721226
000310 1c 08 5b 3d 9e a2 a3 3c d6 f6 18 3e 73 a0 15 3d
       0.05347453 0.019975003 0.1493791 0.03652997
000320 e5 94 06 3e 23 26 a0 3d a2 e1 b1 3d 1e 22 b3 3d
       0.13142736 0.07819774 0.08685614 0.08746742
000330 da 0b 30 bc 29 fc af 3c 6c 8a 4c bb 6a 64 a4 3c
       -0.010745013 0.021482544 -0.0031210436 0.020067412
000340 40 bd 1e bd 73 b8 d8 bb 37 42 8b bd c8 7d 96 bd
       -0.0387547 -0.006613785 -0.06799739 -0.073482096
000350 3c 9b da 3d 20 1a b4 bb 2b b9 d6 3c 99 a1 41 3c
       0.1067414 -0.0054962784 0.026211342 0.011818313
000360 60 64 02 bc 90 87 0c 3e ac 1d 2a 3e 64 57 70 3d
       -0.007958502 0.13723588 0.16612881 0.058677092
000370 6e a8 42 bd 30 ff c8 3d bc 80 2d bb 39 8e 9c bd
       -0.04752391 0.09814298 -0.0026474437 -0.07644314
000380 f0 80 65 3d 26 de 4e 3d 28 0c aa 3d d8 3a 45 bd
       0.056031168 0.050504826 0.083031 -0.04815182
000390 d7 fb ff 3c cb 52 10 3e e6 38 c0 3d b9 5a 6a bc
       0.031248016 0.14094083 0.093858525 -0.0143038565
0003a0 a5 0f 74 3c ca c7 c8 bd ba 63 fc 3d c4 5f 1c 3d
       0.014896308 -0.09803732 0.12323709 0.038177267
0003b0 b9 56 2e be 38 3f d7 3d 94 05 55 bd df f9 74 3d
       -0.1702527 0.10510105 -0.052007273 0.05980861
0003c0 9e 74 e1 bc 68 a6 04 bc 4b 60 11 3d 3b e0 ec 3c
       -0.027521428 -0.008096315 0.035492223 0.028915515
0003d0 58 23 8a bd d3 c2 c2 3d a4 90 c6 3c fd 15 2c bd
       -0.067450225 0.09509816 0.024238892 -0.042013157
0003e0 cd 8b 84 3c b9 85 56 3d f2 a7 2f bb 2b d1 1e bd
       0.016179943 0.05237362 -0.0026802984 -0.038773697
0003f0 aa e1 57 3d 3a 4b 70 bd a0 8a a3 bd 5d 04 e9 bc
       0.052705444 -0.05866549 -0.07985425 -0.028444463

network.3.bias f4 [64]
000000 e2 c0 90 bc a0 71 44 3d 9b 29 91 3d 52 7c 19 bd
       -0.017670099 0.047959924 0.07088014 -0.037472077
000010 f8 51 74 bc fe f8 b0 3d 9e 95 0e bd 82 4f 3b bd
       -0.014912121 0.086412415 -0.034810655 -0.04573012
000020 5a f1 31 3d b8 29 92 3d 71 4c 97 bd 22 41 b9 3c
       0.04344306 0.071368635 -0.07387627 0.022614066
000030 c3 6e ab 3d 7c cb 8d 3d 0a 90 83 3d f5 8c 77 bc
       0.083707355 0.06923577 0.06423958 -0.01510929
000040 5a 36 b2 bc 0a a9 94 bc 3d e4 a9 bc bc 80 53 3c
       -0.021754432 -0.01814701 -0.020738715 0.012909111
000050 25 bf 57 bd 5a 86 06 3d 07 e7 a8 3d a3 55 8f 3d
       -0.052672524 0.03284297 0.0824719 0.06998756
000060 3b d3 52 3d 24 7e 6d bc 52 5c c6 3d aa 3e 0a 3d
       0.051470976 -0.014495406 0.096855775 0.033751167
000070 99 a0 9d 3d 32 1d 58 3d 26 13 93 bd 08 67 38 3d
       0.07696647 0.052762218 -0.07181387 0.045020133
000080 2d d7 85 3d 74 17 70 3d 5b 37 a1 bd ea 08 81 bd
       0.06535182 0.058616117 -0.07871886 -0.06300528
000090 c1 7d 9e bd fd 24 d7 3d 42 b7 88 3d 7a 5e a1 bd
       -0.077388294 0.10505102 0.06675579 -0.07879348
0000a0 37 4d 79 3d d1 88 49 bd 92 ca 93 3c 9f 56 7c bd
       0.060864653 -0.049202744 0.018040929 -0.061606046
0000b0 96 30 88 bd 09 c7 09 3d 2d bf 20 bd eb 15 9a 3d
       -0.06649892 0.03363708 -0.03924482 0.07523712
0000c0 b5 f0 12 3b f9 70 1d 3c 25 f3 c0 3d 26 1e 0e 3d
       0.0022421305 0.009609454 0.09421376 0.03469672
0000d0 99 40 05 bc 3e e1 65 3d 61 61 1a bd 04 02 9d bd
       -0.008133077 0.05612301 -0.037690524 -0.076664
0000e0 6f cf 48 bd 56 6f b6 3d 04 6d 01 3d d0 7f 27 bd
       -0.04902595 0.089079544 0.031598106 -0.040893376
0000f0 65 2a 9c 3d f6 0b 11 3c 06 cb 83 3d 7c c0 91 3d
       0.076252736 0.008852949 0.06435208 0.071167916

network.6.weight f4 [5, 64]
000000 d7 68 e3 bd 3e 1c 39 bc f7 97 d3 3d c9 78 a9 bc
       -0.11103981 -0.011298237 0.10331719 -0.020687478
000010 50 02 0f be aa ab 4d be 0f 80 59 3e 46 54 3e 3e
       -0.13965726 -0.20085016 0.21240257 0.18586835
000020 02 91 14 3d 68 5a c3 bd bd 8b e3 bd 53 4b e6 3d
       0.036271103 -0.09538728 -0.11110637 0.11244836
000030 2b e6 48 be 8b a5 6d bb 36 4c b3 3d 5e 01 da bd
       -0.19619052 -0.0036262001 0.087547705 -0.10644792
000040 79 8b c4 3d a0 f8 91 3b c0 53 e9 bd 0a 8b 9b 3d
       0.09596915 0.0044546872 -0.11392927 0.07594879
000050 a2 9d 32 3d 0f 1c 85 3d 38 49 6e bd 90 15 a6 bd
       0.04360736 0.064994924 -0.058175296 -0.081095815
000060 e8 d6 fd bd 71 5f 82 bd 1e 40 53 3d 0e 9e ae 3c
       -0.12394506 -0.0636586 0.05157482 0.0213156
000070 62 9f ba bd 2f 0e f4 bd 38 cb 83 bc 45 38 5c 3d
       -0.09112431 -0.11916768 -0.016088113 0.0537646
000080 6b 9d 42 be fe 65 88 bd 99 43 49 bd 7e c8 7c be
       -0.19005363 -0.066600785 -0.04913673 -0.24685857
000090 4d f7 d6 3d 8a ac 14 3d 82 8a 9f 3d 5d 2b bb 3d
       0.10496388 0.03629736 0.0779009 0.0913913
0000a0 ec ed 86 bd 4f a8 a6 3d 4f c8 a6 bd af df 04 3d
       -0.06588349 0.08137571 -0.081436746 0.032439884
0000b0 4a 01 2a be 13 4d 37 be ba 29 df bd e9 31 0c be
       -0.16602054 -0.17900495 -0.108966306 -0.13690914
0000c0 d4 b1 0b 3e 34 ff d6 3d 8e d1 7e be e2 1a ad bc
       0.13642055 0.10497895 -0.24884626 -0.021130983
0000d0 be 23 90 3d 49 a1 9a bd be fa 23 3e b4 1d 92 3d
       0.07038067 -0.07550294 0.1601362 0.07134572
0000e0 be 85 b5 3d 2a 01 06 3e 87 3f f5 3d 68 d6 81 3d
       0.088634 0.13086382 0.119750075 0.06339723
0000f0 3c 63 32 3e 92 a8 9b 3d 09 da 06 3d 6b 30 59 bd
       0.17420667 0.076005116 0.03292278 -0.05302469
000100 46 dc 36 be 61 9f e2 bc 1d d5 b6 bc aa 62 56 bd
       -0.17857465 -0.027663888 -0.022318417 -0.052340187
000110 d8 8b a9 bd a0 c2 8a 3b ac 25 05 3e 12 18 81 3d
       -0.08278626 0.004234627 0.13002652 0.06303419
000120 1f b7 71 bd 75 17 33 be 83 e7 80 3c 93 2e e1 bd
       -0.05901253 -0.17489417 0.015735393 -0.109952115
000130 fb 6a cf bd ac 08 5a bc 57 12 7f be 9e 56 8a be
       -0.10127827 -0.013307732 -0.2490934 -0.2701921
000140 d3 1b 0b 3d ba 86 f1 3d f0 1c 7a 3d 75 e9 87 bc
       0.033962082 0.11793275 0.061062753 -0.016590813
000150 d9 83 4b 3e e9 0b 8d 3d 0c 87 0d be ce 74 30 bd
       0.19874515 0.06887037 -0.13821048 -0.043080144
000160 a0 15 7a bd cd 97 41 3e 71 2d d0 3c 07 b3 c5 3d
       -0.06105578 0.18905564 0.025412293 0.096532874
000170 8c f8 38 be 19 44 d8 bc 68 51 b5 bd 9a dc e5 bd
       -0.18063563 -0.026399659 -0.08853418 -0.11223717
000180 3e 73 0e bd 14 3d 5a 3d 8f 92 30 3c c9 cb 2d be
       -0.034777872 0.053280905 0.01077713 -0.16972269
000190 d3 5a 59 bc 5f d8 2a be e9 c9 86 bd d2 c0 de 3d
       -0.013266283 -0.16684102 -0.0658148 0.10876621
0001a0 0b aa 8d bd b4 9d c5 3b 41 26 58 be e5 94 ba 3d
       -0.06917199 0.0060307626 -0.21108343 0.09110431
0001b0 74 35 92 bd e3 6c ee 3c 4e a5 d9 bc f4 4b 2f bc
       -0.071391016 0.029104656 -0.026568081 -0.010699261
0001c0 b3 2d 35 be 0e 4d 77 3d ae 5b 75 bd 64 9e 8b 3d
       -0.17693214 0.06037622 -0.059901886 0.0681732
0001d0 c0 ce 79 be 3d e8 4d bc 6c 64 ae bc 12 f0 42 bd
       -0.24395275 -0.012567577 -0.02128812 -0.04759223
0001e0 dc 05 36 3d e2 cf b9 3d 4d c8 15 be 5e 95 a6 bd
       0.04443918 0.090728536 -0.1462719 -0.08133958
0001f0 db cf 30 3e 77 a8 15 bd 27 00 c6 bd 8f 66 a9 bc
       0.1726679 -0.036537614 -0.09667998 -0.020678787
000200 72 c1 f2 bc e7 4d 10 be 2f 4f c9 3d 3a 3a f1 bd
       -0.029633258 -0.14092217 0.09829556 -0.11778684
000210 3b 67 cb bc 2f 79 66 be da 1d 6b be a7 e4 db bd
       -0.024829498 -0.22507165 -0.22960606 -0.10736971
000220 bc 95 ab bd f3 5b b0 bd 4d a9 c0 3c 76 f8 c8 3d
       -0.08378169 -0.08611288 0.023518229 0.09813015
000230 c3 8b 67 3d 97 d9 31 be 07 84 8a bd ad a7 9d 3c
       0.05652977 -0.1736816 -0.067634635 0.019244993
000240 60 9b 17 3d da 17 ea bd 5c 56 92 bd 91 35 d1 3c
       0.03701341 -0.114303306 -0.07145378 0.025538238
000250 87 11 01 be a9 0d 18 bd d1 96 38 3e ac a7 97 3c
       -0.12604342 -0.037122402 0.18026282 0.01851257
000260 83 30 56 3e d3 79 f6 3b d3 b8 ea 3c c1 0f fa bd
       0.20916943 0.007521847 0.028652584 -0.12210036
000270 79 5e 95 bc db 62 19 3e 9e 63 93 bd cb a2 0d bd
       -0.018233525 0.14979117 -0.07196735 -0.03457908
000280 73 1c 38 be 35 76 dc 3d de 0a 92 3d a4 43 9c bd
       -0.17979603 0.10764734 0.07130979 -0.07630089
000290 f7 8b 1c 3d f4 32 c8 bd 39 a4 a4 3d 51 65 da bc
       0.03821942 -0.097753435 0.080391355 -0.02665964
0002a0 ea 07 9a bd 75 2a fc bd 0b 63 f5 bc 05 88 6e 3d
       -0.07521041 -0.123127855 -0.029954454 0.058235187
0002b0 cc 14 43 3d ea 92 a1 3d f3 74 22 be 45 a1 3c 3e
       0.047627255 0.0788935 -0.15864925 0.18420894
0002c0 66 4e be bd 42 17 87 bd 84 93 2f be a3 49 5c 3d
       -0.09292297 -0.06596233 -0.17146116 0.053781163
0002d0 e5 f7 bd 3d eb 41 47 3e 36 e0 29 3e 61 25 93 3b
       0.09275798 0.1945874 0.16589436 0.00449054
0002e0 41 76 08 be 52 22 06 3e 3b 3f ff bd da 8d 98 3d
       -0.1332636 0.1309903 -0.12463232 0.07448931
0002f0 9d bc 79 be bc 62 fe bb 34 82 9a bd 29 dc 8b bd
       -0.24388357 -0.007763235 -0.075443655 -0.068291016
000300 2a f7 0f bc 2b 76 de bc 9b 24 a0 3d a8 85 99 bc
       -0.008786956 -0.027155956 0.07819482 -0.01874049
000310 d0 60 69 3e 1a c7 e3 3c ec 81 2b be b1 68 c3 bd
       0.22790837 0.0278049 -0.1674878 -0.09541453
000320 5e b1 a5 3d 30 95 ff 3b 13 ad b2 3c 3d 63 bf 3c
       0.08090471 0.007799767 0.021811044 0.02336275
000330 eb 35 d3 bd 13 ef 00 3e b0 5c 05 3e 29 3c 03 3e
       -0.103130184 0.125912 0.13023639 0.12815918
000340 21 43 c9 3b da e3 c5 bd c0 1d 86 3b e4 ce 1d bb
       0.0061420356 -0.096626 0.004092902 -0.0024079615
000350 5b d7 46 be ec 78 32 bd 0c bb 9b 3d ce f4 12 be
       -0.19418089 -0.04357235 0.07604036 -0.14351198
000360 02 95 0c 3e 35 b9 21 be dd 5a 1b be 9a d8 3b be
       0.13728717 -0.15793307 -0.1517138 -0.18344346
000370 fc ce 02 be 5c 17 6b 3d 30 73 85 3c a2 c7 1c be
       -0.12774271 0.057395324 0.016290277 -0.15310529
000380 fd 91 58 3d 21 50 ed bd 80 3b ac bd 81 0e 1a bd
       0.0528736 -0.11587549 -0.08409786 -0.03761149
000390 b7 37 59 3b 14 ff ce bd b5 04 0f 3d d3 c5 2d 3d
       0.003314478 -0.10107246 0.0349166 0.042424988
0003a0 2a 93 18 be 9e 8a 5d 3d 3d 8f 66 3d 0e 95 cc bd
       -0.14899889 0.054087274 0.056288946 -0.099893674
0003b0 88 b5 e7 3c 78 13 c3 3d bd cf 40 ba b9 53 48 be
       0.028284803 0.09525198 -0.0007355174 -0.19563188
0003c0 26 f9 70 bb 5a 2d 9a bd 5d 44 6f 3e f8 4d 35 3d
       -0.0036769598 -0.075281814 0.23365922 0.04426381
0003d0 94 ce 28 3e 42 7e 19 bd d1 69 bc bc f2 16 ce 3d
       0.16485053 -0.037473924 -0.022999676 0.1006297
0003e0 a5 bb ae bc 93 09 63 be dc 29 04 be 98 75 2e 3c
       -0.02132971 -0.22171621 -0.12906593 0.010648154
0003f0 b2 df 0e be 3a 32 79 3d 1d 84 30 bd 7a b5 24 3d
       -0.1395252 0.060838915 -0.043094743 0.040212132

network.6.bias f4 [5]
000000 97 b8 bf bd 3f 1f 6e 3d 0c 23 d9 bd e8 4f c2 bd
       -0.093613796 0.058135267 -0.10602388 -0.09487897
000010 ed f9 1e bd
       -0.038812567
